…
[2019-03-04 13:14]   class 7 = 'Contrast': 340
[2019-03-04 13:14]   class 8 = 'Purpose': 244
[2019-03-04 13:14]   class 9 = 'Conditional': 134
[2019-03-04 13:14]   class 10 = 'Progression': 75
[2019-03-04 13:14]   class 11 = 'Alternative': 18
[2019-03-04 13:14] build model
____________________________________________________________________________________________________
Layer (type)                     Output Shape          Param #     Connected to                     
====================================================================================================
arg1_ids (InputLayer)            (None, 500)           0                                            
____________________________________________________________________________________________________
arg2_ids (InputLayer)            (None, 500)           0                                            
____________________________________________________________________________________________________
conn_ids (InputLayer)            (None, 10)            0                                            
____________________________________________________________________________________________________
punc_ids (InputLayer)            (None, 2)             0                                            
____________________________________________________________________________________________________
embedding_1 (Embedding)          (None, 500, 20)       295700      arg1_ids[0][0]                   
____________________________________________________________________________________________________
embedding_2 (Embedding)          (None, 500, 20)       295700      arg2_ids[0][0]                   
____________________________________________________________________________________________________
embedding_3 (Embedding)          (None, 10, 20)        295700      conn_ids[0][0]                   
____________________________________________________________________________________________________
embedding_4 (Embedding)          (None, 2, 20)         295700      punc_ids[0][0]                   
____________________________________________________________________________________________________
shareablelstm_1 (ShareableLSTM)  (None, 500, 12)       1584        embedding_1[0][0]                
____________________________________________________________________________________________________
shareablelstm_2 (ShareableLSTM)  (None, 500, 12)       1584        embedding_1[0][0]                
____________________________________________________________________________________________________
shareablelstm_27 (ShareableLSTM) (None, 500, 12)       1584        embedding_2[0][0]                
____________________________________________________________________________________________________
shareablelstm_28 (ShareableLSTM) (None, 500, 12)       1584        embedding_2[0][0]                
____________________________________________________________________________________________________
shareablelstm_53 (ShareableLSTM) (None, 10, 12)        1584        embedding_3[0][0]                
____________________________________________________________________________________________________
shareablelstm_54 (ShareableLSTM) (None, 10, 12)        1584        embedding_3[0][0]                
____________________________________________________________________________________________________
shareablelstm_79 (ShareableLSTM) (None, 2, 12)         1584        embedding_4[0][0]                
____________________________________________________________________________________________________
shareablelstm_80 (ShareableLSTM) (None, 2, 12)         1584        embedding_4[0][0]                
____________________________________________________________________________________________________
merge_1 (Merge)                  (None, 500, 12)       0           shareablelstm_1[0][0]            
                                                                   shareablelstm_2[0][0]            
____________________________________________________________________________________________________
merge_15 (Merge)                 (None, 500, 12)       0           shareablelstm_27[0][0]           
                                                                   shareablelstm_28[0][0]           
____________________________________________________________________________________________________
merge_29 (Merge)                 (None, 10, 12)        0           shareablelstm_53[0][0]           
                                                                   shareablelstm_54[0][0]           
____________________________________________________________________________________________________
merge_43 (Merge)                 (None, 2, 12)         0           shareablelstm_79[0][0]           
                                                                   shareablelstm_80[0][0]           
____________________________________________________________________________________________________
arg1_filters (Activation)        (None, 500, 12)       0           merge_1[0][0]                    
____________________________________________________________________________________________________
arg2_filters (Activation)        (None, 500, 12)       0           merge_15[0][0]                   
____________________________________________________________________________________________________
conn_filters (Activation)        (None, 10, 12)        0           merge_29[0][0]                   
____________________________________________________________________________________________________
punc_filters (Activation)        (None, 2, 12)         0           merge_43[0][0]                   
____________________________________________________________________________________________________
merge_2 (Merge)                  (None, 500, 20)       0           embedding_1[0][0]                
                                                                   arg1_filters[0][0]               
____________________________________________________________________________________________________
merge_3 (Merge)                  (None, 500, 20)       0           embedding_1[0][0]                
                                                                   arg1_filters[0][0]               
____________________________________________________________________________________________________
merge_4 (Merge)                  (None, 500, 20)       0           embedding_1[0][0]                
                                                                   arg1_filters[0][0]               
____________________________________________________________________________________________________
merge_5 (Merge)                  (None, 500, 20)       0           embedding_1[0][0]                
                                                                   arg1_filters[0][0]               
____________________________________________________________________________________________________
merge_6 (Merge)                  (None, 500, 20)       0           embedding_1[0][0]                
                                                                   arg1_filters[0][0]               
____________________________________________________________________________________________________
merge_7 (Merge)                  (None, 500, 20)       0           embedding_1[0][0]                
                                                                   arg1_filters[0][0]               
____________________________________________________________________________________________________
merge_8 (Merge)                  (None, 500, 20)       0           embedding_1[0][0]                
                                                                   arg1_filters[0][0]               
____________________________________________________________________________________________________
merge_9 (Merge)                  (None, 500, 20)       0           embedding_1[0][0]                
                                                                   arg1_filters[0][0]               
____________________________________________________________________________________________________
merge_10 (Merge)                 (None, 500, 20)       0           embedding_1[0][0]                
                                                                   arg1_filters[0][0]               
____________________________________________________________________________________________________
merge_11 (Merge)                 (None, 500, 20)       0           embedding_1[0][0]                
                                                                   arg1_filters[0][0]               
____________________________________________________________________________________________________
merge_12 (Merge)                 (None, 500, 20)       0           embedding_1[0][0]                
                                                                   arg1_filters[0][0]               
____________________________________________________________________________________________________
merge_13 (Merge)                 (None, 500, 20)       0           embedding_1[0][0]                
                                                                   arg1_filters[0][0]               
____________________________________________________________________________________________________
merge_16 (Merge)                 (None, 500, 20)       0           embedding_2[0][0]                
                                                                   arg2_filters[0][0]               
____________________________________________________________________________________________________
merge_17 (Merge)                 (None, 500, 20)       0           embedding_2[0][0]                
                                                                   arg2_filters[0][0]               
____________________________________________________________________________________________________
merge_18 (Merge)                 (None, 500, 20)       0           embedding_2[0][0]                
                                                                   arg2_filters[0][0]               
____________________________________________________________________________________________________
merge_19 (Merge)                 (None, 500, 20)       0           embedding_2[0][0]                
                                                                   arg2_filters[0][0]               
____________________________________________________________________________________________________
merge_20 (Merge)                 (None, 500, 20)       0           embedding_2[0][0]                
                                                                   arg2_filters[0][0]               
____________________________________________________________________________________________________
merge_21 (Merge)                 (None, 500, 20)       0           embedding_2[0][0]                
                                                                   arg2_filters[0][0]               
____________________________________________________________________________________________________
merge_22 (Merge)                 (None, 500, 20)       0           embedding_2[0][0]                
                                                                   arg2_filters[0][0]               
____________________________________________________________________________________________________
merge_23 (Merge)                 (None, 500, 20)       0           embedding_2[0][0]                
                                                                   arg2_filters[0][0]               
____________________________________________________________________________________________________
merge_24 (Merge)                 (None, 500, 20)       0           embedding_2[0][0]                
                                                                   arg2_filters[0][0]               
____________________________________________________________________________________________________
merge_25 (Merge)                 (None, 500, 20)       0           embedding_2[0][0]                
                                                                   arg2_filters[0][0]               
____________________________________________________________________________________________________
merge_26 (Merge)                 (None, 500, 20)       0           embedding_2[0][0]                
                                                                   arg2_filters[0][0]               
____________________________________________________________________________________________________
merge_27 (Merge)                 (None, 500, 20)       0           embedding_2[0][0]                
                                                                   arg2_filters[0][0]               
____________________________________________________________________________________________________
merge_30 (Merge)                 (None, 10, 20)        0           embedding_3[0][0]                
                                                                   conn_filters[0][0]               
____________________________________________________________________________________________________
merge_31 (Merge)                 (None, 10, 20)        0           embedding_3[0][0]                
                                                                   conn_filters[0][0]               
____________________________________________________________________________________________________
merge_32 (Merge)                 (None, 10, 20)        0           embedding_3[0][0]                
                                                                   conn_filters[0][0]               
____________________________________________________________________________________________________
merge_33 (Merge)                 (None, 10, 20)        0           embedding_3[0][0]                
                                                                   conn_filters[0][0]               
____________________________________________________________________________________________________
merge_34 (Merge)                 (None, 10, 20)        0           embedding_3[0][0]                
                                                                   conn_filters[0][0]               
____________________________________________________________________________________________________
merge_35 (Merge)                 (None, 10, 20)        0           embedding_3[0][0]                
                                                                   conn_filters[0][0]               
____________________________________________________________________________________________________
merge_36 (Merge)                 (None, 10, 20)        0           embedding_3[0][0]                
                                                                   conn_filters[0][0]               
____________________________________________________________________________________________________
merge_37 (Merge)                 (None, 10, 20)        0           embedding_3[0][0]                
                                                                   conn_filters[0][0]               
____________________________________________________________________________________________________
merge_38 (Merge)                 (None, 10, 20)        0           embedding_3[0][0]                
                                                                   conn_filters[0][0]               
____________________________________________________________________________________________________
merge_39 (Merge)                 (None, 10, 20)        0           embedding_3[0][0]                
                                                                   conn_filters[0][0]               
____________________________________________________________________________________________________
merge_40 (Merge)                 (None, 10, 20)        0           embedding_3[0][0]                
                                                                   conn_filters[0][0]               
____________________________________________________________________________________________________
merge_41 (Merge)                 (None, 10, 20)        0           embedding_3[0][0]                
                                                                   conn_filters[0][0]               
____________________________________________________________________________________________________
merge_44 (Merge)                 (None, 2, 20)         0           embedding_4[0][0]                
                                                                   punc_filters[0][0]               
____________________________________________________________________________________________________
merge_45 (Merge)                 (None, 2, 20)         0           embedding_4[0][0]                
                                                                   punc_filters[0][0]               
____________________________________________________________________________________________________
merge_46 (Merge)                 (None, 2, 20)         0           embedding_4[0][0]                
                                                                   punc_filters[0][0]               
____________________________________________________________________________________________________
merge_47 (Merge)                 (None, 2, 20)         0           embedding_4[0][0]                
                                                                   punc_filters[0][0]               
____________________________________________________________________________________________________
merge_48 (Merge)                 (None, 2, 20)         0           embedding_4[0][0]                
                                                                   punc_filters[0][0]               
____________________________________________________________________________________________________
merge_49 (Merge)                 (None, 2, 20)         0           embedding_4[0][0]                
                                                                   punc_filters[0][0]               
____________________________________________________________________________________________________
merge_50 (Merge)                 (None, 2, 20)         0           embedding_4[0][0]                
                                                                   punc_filters[0][0]               
____________________________________________________________________________________________________
merge_51 (Merge)                 (None, 2, 20)         0           embedding_4[0][0]                
                                                                   punc_filters[0][0]               
____________________________________________________________________________________________________
merge_52 (Merge)                 (None, 2, 20)         0           embedding_4[0][0]                
                                                                   punc_filters[0][0]               
____________________________________________________________________________________________________
merge_53 (Merge)                 (None, 2, 20)         0           embedding_4[0][0]                
                                                                   punc_filters[0][0]               
____________________________________________________________________________________________________
merge_54 (Merge)                 (None, 2, 20)         0           embedding_4[0][0]                
                                                                   punc_filters[0][0]               
____________________________________________________________________________________________________
merge_55 (Merge)                 (None, 2, 20)         0           embedding_4[0][0]                
                                                                   punc_filters[0][0]               
____________________________________________________________________________________________________
shareablelstm_3 (ShareableLSTM)  (None, 20)            3280        merge_2[0][0]                    
____________________________________________________________________________________________________
shareablelstm_5 (ShareableLSTM)  (None, 20)            3280        merge_3[0][0]                    
____________________________________________________________________________________________________
shareablelstm_7 (ShareableLSTM)  (None, 20)            3280        merge_4[0][0]                    
____________________________________________________________________________________________________
shareablelstm_9 (ShareableLSTM)  (None, 20)            3280        merge_5[0][0]                    
____________________________________________________________________________________________________
shareablelstm_11 (ShareableLSTM) (None, 20)            3280        merge_6[0][0]                    
____________________________________________________________________________________________________
shareablelstm_13 (ShareableLSTM) (None, 20)            3280        merge_7[0][0]                    
____________________________________________________________________________________________________
shareablelstm_15 (ShareableLSTM) (None, 20)            3280        merge_8[0][0]                    
____________________________________________________________________________________________________
shareablelstm_17 (ShareableLSTM) (None, 20)            3280        merge_9[0][0]                    
____________________________________________________________________________________________________
shareablelstm_19 (ShareableLSTM) (None, 20)            3280        merge_10[0][0]                   
____________________________________________________________________________________________________
shareablelstm_21 (ShareableLSTM) (None, 20)            3280        merge_11[0][0]                   
____________________________________________________________________________________________________
shareablelstm_23 (ShareableLSTM) (None, 20)            3280        merge_12[0][0]                   
____________________________________________________________________________________________________
shareablelstm_25 (ShareableLSTM) (None, 20)            3280        merge_13[0][0]                   
____________________________________________________________________________________________________
shareablelstm_29 (ShareableLSTM) (None, 20)            3280        merge_16[0][0]                   
____________________________________________________________________________________________________
shareablelstm_31 (ShareableLSTM) (None, 20)            3280        merge_17[0][0]                   
____________________________________________________________________________________________________
shareablelstm_33 (ShareableLSTM) (None, 20)            3280        merge_18[0][0]                   
____________________________________________________________________________________________________
shareablelstm_35 (ShareableLSTM) (None, 20)            3280        merge_19[0][0]                   
____________________________________________________________________________________________________
shareablelstm_37 (ShareableLSTM) (None, 20)            3280        merge_20[0][0]                   
____________________________________________________________________________________________________
shareablelstm_39 (ShareableLSTM) (None, 20)            3280        merge_21[0][0]                   
____________________________________________________________________________________________________
shareablelstm_41 (ShareableLSTM) (None, 20)            3280        merge_22[0][0]                   
____________________________________________________________________________________________________
shareablelstm_43 (ShareableLSTM) (None, 20)            3280        merge_23[0][0]                   
____________________________________________________________________________________________________
shareablelstm_45 (ShareableLSTM) (None, 20)            3280        merge_24[0][0]                   
____________________________________________________________________________________________________
shareablelstm_47 (ShareableLSTM) (None, 20)            3280        merge_25[0][0]                   
____________________________________________________________________________________________________
shareablelstm_49 (ShareableLSTM) (None, 20)            3280        merge_26[0][0]                   
____________________________________________________________________________________________________
shareablelstm_51 (ShareableLSTM) (None, 20)            3280        merge_27[0][0]                   
____________________________________________________________________________________________________
shareablelstm_55 (ShareableLSTM) (None, 20)            3280        merge_30[0][0]                   
____________________________________________________________________________________________________
shareablelstm_57 (ShareableLSTM) (None, 20)            3280        merge_31[0][0]                   
____________________________________________________________________________________________________
shareablelstm_59 (ShareableLSTM) (None, 20)            3280        merge_32[0][0]                   
____________________________________________________________________________________________________
shareablelstm_61 (ShareableLSTM) (None, 20)            3280        merge_33[0][0]                   
____________________________________________________________________________________________________
shareablelstm_63 (ShareableLSTM) (None, 20)            3280        merge_34[0][0]                   
____________________________________________________________________________________________________
shareablelstm_65 (ShareableLSTM) (None, 20)            3280        merge_35[0][0]                   
____________________________________________________________________________________________________
shareablelstm_67 (ShareableLSTM) (None, 20)            3280        merge_36[0][0]                   
____________________________________________________________________________________________________
shareablelstm_69 (ShareableLSTM) (None, 20)            3280        merge_37[0][0]                   
____________________________________________________________________________________________________
shareablelstm_71 (ShareableLSTM) (None, 20)            3280        merge_38[0][0]                   
____________________________________________________________________________________________________
shareablelstm_73 (ShareableLSTM) (None, 20)            3280        merge_39[0][0]                   
____________________________________________________________________________________________________
shareablelstm_75 (ShareableLSTM) (None, 20)            3280        merge_40[0][0]                   
____________________________________________________________________________________________________
shareablelstm_77 (ShareableLSTM) (None, 20)            3280        merge_41[0][0]                   
____________________________________________________________________________________________________
shareablelstm_81 (ShareableLSTM) (None, 20)            3280        merge_44[0][0]                   
____________________________________________________________________________________________________
shareablelstm_83 (ShareableLSTM) (None, 20)            3280        merge_45[0][0]                   
____________________________________________________________________________________________________
shareablelstm_85 (ShareableLSTM) (None, 20)            3280        merge_46[0][0]                   
____________________________________________________________________________________________________
shareablelstm_87 (ShareableLSTM) (None, 20)            3280        merge_47[0][0]                   
____________________________________________________________________________________________________
shareablelstm_89 (ShareableLSTM) (None, 20)            3280        merge_48[0][0]                   
____________________________________________________________________________________________________
shareablelstm_91 (ShareableLSTM) (None, 20)            3280        merge_49[0][0]                   
____________________________________________________________________________________________________
shareablelstm_93 (ShareableLSTM) (None, 20)            3280        merge_50[0][0]                   
____________________________________________________________________________________________________
shareablelstm_95 (ShareableLSTM) (None, 20)            3280        merge_51[0][0]                   
____________________________________________________________________________________________________
shareablelstm_97 (ShareableLSTM) (None, 20)            3280        merge_52[0][0]                   
____________________________________________________________________________________________________
shareablelstm_99 (ShareableLSTM) (None, 20)            3280        merge_53[0][0]                   
____________________________________________________________________________________________________
shareablelstm_101 (ShareableLSTM (None, 20)            3280        merge_54[0][0]                   
____________________________________________________________________________________________________
shareablelstm_103 (ShareableLSTM (None, 20)            3280        merge_55[0][0]                   
____________________________________________________________________________________________________
merge_14 (Merge)                 (None, 240)           0           shareablelstm_3[0][0]            
                                                                   shareablelstm_5[0][0]            
                                                                   shareablelstm_7[0][0]            
                                                                   shareablelstm_9[0][0]            
                                                                   shareablelstm_11[0][0]           
…
                                                                   shareablelstm_95[0][0]           
                                                                   shareablelstm_97[0][0]           
                                                                   shareablelstm_99[0][0]           
                                                                   shareablelstm_101[0][0]          
                                                                   shareablelstm_103[0][0]          
____________________________________________________________________________________________________
dropout_1 (Dropout)              (None, 240)           0           merge_14[0][0]                   
____________________________________________________________________________________________________
dropout_2 (Dropout)              (None, 240)           0           merge_28[0][0]                   
____________________________________________________________________________________________________
dropout_3 (Dropout)              (None, 240)           0           merge_42[0][0]                   
____________________________________________________________________________________________________
dropout_4 (Dropout)              (None, 240)           0           merge_56[0][0]                   
____________________________________________________________________________________________________
merge_57 (Merge)                 (None, 960)           0           dropout_1[0][0]                  
                                                                   dropout_2[0][0]                  
                                                                   dropout_3[0][0]                  
                                                                   dropout_4[0][0]                  
____________________________________________________________________________________________________
dense_1 (Dense)                  (None, 80)            76880       merge_57[0][0]                   
____________________________________________________________________________________________________
srelu_1 (SReLU)                  (None, 80)            320         dense_1[0][0]                    
____________________________________________________________________________________________________
dropout_5 (Dropout)              (None, 80)            0           srelu_1[0][0]                    
____________________________________________________________________________________________________
dense_2 (Dense)                  (None, 12)            972         dropout_5[0][0]                  
____________________________________________________________________________________________________
target (Activation)              (None, 12)            0           dense_2[0][0]                    
====================================================================================================
Total params: 1,431,084
Trainable params: 1,431,084
Non-trainable params: 0
____________________________________________________________________________________________________
[2019-03-04 13:53] initialize weights
[2019-03-04 13:53] training preparation
…
