…
[2019-03-10 14:44]   class 18 = 'Temporal': 27
[2019-03-10 14:44]   class 19 = 'Contingency': 24
[2019-03-10 14:44]   class 20 = 'Expansion.Exception': 15
[2019-03-10 14:44]   class 21 = 'Temporal.Asynchronous': 6
[2019-03-10 14:44]   class 22 = 'Contingency.Cause': 2
[2019-03-10 14:44] build model
____________________________________________________________________________________________________
Layer (type)                     Output Shape          Param #     Connected to                     
====================================================================================================
arg1_ids (InputLayer)            (None, 100)           0                                            
____________________________________________________________________________________________________
arg2_ids (InputLayer)            (None, 100)           0                                            
____________________________________________________________________________________________________
conn_ids (InputLayer)            (None, 10)            0                                            
____________________________________________________________________________________________________
embedding_1 (Embedding)          (None, 100, 20)       878360      arg1_ids[0][0]                   
____________________________________________________________________________________________________
embedding_2 (Embedding)          (None, 100, 20)       878360      arg2_ids[0][0]                   
____________________________________________________________________________________________________
embedding_3 (Embedding)          (None, 10, 20)        878360      conn_ids[0][0]                   
____________________________________________________________________________________________________
shareablelstm_1 (ShareableLSTM)  (None, 100, 8)        928         embedding_1[0][0]                
____________________________________________________________________________________________________
shareablelstm_2 (ShareableLSTM)  (None, 100, 8)        928         embedding_1[0][0]                
____________________________________________________________________________________________________
shareablelstm_19 (ShareableLSTM) (None, 100, 8)        928         embedding_2[0][0]                
____________________________________________________________________________________________________
shareablelstm_20 (ShareableLSTM) (None, 100, 8)        928         embedding_2[0][0]                
____________________________________________________________________________________________________
shareablelstm_37 (ShareableLSTM) (None, 10, 8)         928         embedding_3[0][0]                
____________________________________________________________________________________________________
shareablelstm_38 (ShareableLSTM) (None, 10, 8)         928         embedding_3[0][0]                
____________________________________________________________________________________________________
merge_1 (Merge)                  (None, 100, 8)        0           shareablelstm_1[0][0]            
                                                                   shareablelstm_2[0][0]            
____________________________________________________________________________________________________
merge_11 (Merge)                 (None, 100, 8)        0           shareablelstm_19[0][0]           
                                                                   shareablelstm_20[0][0]           
____________________________________________________________________________________________________
merge_21 (Merge)                 (None, 10, 8)         0           shareablelstm_37[0][0]           
                                                                   shareablelstm_38[0][0]           
____________________________________________________________________________________________________
arg1_filters (Activation)        (None, 100, 8)        0           merge_1[0][0]                    
____________________________________________________________________________________________________
arg2_filters (Activation)        (None, 100, 8)        0           merge_11[0][0]                   
____________________________________________________________________________________________________
conn_filters (Activation)        (None, 10, 8)         0           merge_21[0][0]                   
____________________________________________________________________________________________________
merge_2 (Merge)                  (None, 100, 20)       0           embedding_1[0][0]                
                                                                   arg1_filters[0][0]               
____________________________________________________________________________________________________
merge_3 (Merge)                  (None, 100, 20)       0           embedding_1[0][0]                
                                                                   arg1_filters[0][0]               
____________________________________________________________________________________________________
merge_4 (Merge)                  (None, 100, 20)       0           embedding_1[0][0]                
                                                                   arg1_filters[0][0]               
____________________________________________________________________________________________________
merge_5 (Merge)                  (None, 100, 20)       0           embedding_1[0][0]                
                                                                   arg1_filters[0][0]               
____________________________________________________________________________________________________
merge_6 (Merge)                  (None, 100, 20)       0           embedding_1[0][0]                
                                                                   arg1_filters[0][0]               
____________________________________________________________________________________________________
merge_7 (Merge)                  (None, 100, 20)       0           embedding_1[0][0]                
                                                                   arg1_filters[0][0]               
____________________________________________________________________________________________________
merge_8 (Merge)                  (None, 100, 20)       0           embedding_1[0][0]                
                                                                   arg1_filters[0][0]               
____________________________________________________________________________________________________
merge_9 (Merge)                  (None, 100, 20)       0           embedding_1[0][0]                
                                                                   arg1_filters[0][0]               
____________________________________________________________________________________________________
merge_12 (Merge)                 (None, 100, 20)       0           embedding_2[0][0]                
                                                                   arg2_filters[0][0]               
____________________________________________________________________________________________________
merge_13 (Merge)                 (None, 100, 20)       0           embedding_2[0][0]                
                                                                   arg2_filters[0][0]               
____________________________________________________________________________________________________
merge_14 (Merge)                 (None, 100, 20)       0           embedding_2[0][0]                
                                                                   arg2_filters[0][0]               
____________________________________________________________________________________________________
merge_15 (Merge)                 (None, 100, 20)       0           embedding_2[0][0]                
                                                                   arg2_filters[0][0]               
____________________________________________________________________________________________________
merge_16 (Merge)                 (None, 100, 20)       0           embedding_2[0][0]                
                                                                   arg2_filters[0][0]               
____________________________________________________________________________________________________
merge_17 (Merge)                 (None, 100, 20)       0           embedding_2[0][0]                
                                                                   arg2_filters[0][0]               
____________________________________________________________________________________________________
merge_18 (Merge)                 (None, 100, 20)       0           embedding_2[0][0]                
                                                                   arg2_filters[0][0]               
____________________________________________________________________________________________________
merge_19 (Merge)                 (None, 100, 20)       0           embedding_2[0][0]                
                                                                   arg2_filters[0][0]               
____________________________________________________________________________________________________
merge_22 (Merge)                 (None, 10, 20)        0           embedding_3[0][0]                
                                                                   conn_filters[0][0]               
____________________________________________________________________________________________________
merge_23 (Merge)                 (None, 10, 20)        0           embedding_3[0][0]                
                                                                   conn_filters[0][0]               
____________________________________________________________________________________________________
merge_24 (Merge)                 (None, 10, 20)        0           embedding_3[0][0]                
                                                                   conn_filters[0][0]               
____________________________________________________________________________________________________
merge_25 (Merge)                 (None, 10, 20)        0           embedding_3[0][0]                
                                                                   conn_filters[0][0]               
____________________________________________________________________________________________________
merge_26 (Merge)                 (None, 10, 20)        0           embedding_3[0][0]                
                                                                   conn_filters[0][0]               
____________________________________________________________________________________________________
merge_27 (Merge)                 (None, 10, 20)        0           embedding_3[0][0]                
                                                                   conn_filters[0][0]               
____________________________________________________________________________________________________
merge_28 (Merge)                 (None, 10, 20)        0           embedding_3[0][0]                
                                                                   conn_filters[0][0]               
____________________________________________________________________________________________________
merge_29 (Merge)                 (None, 10, 20)        0           embedding_3[0][0]                
                                                                   conn_filters[0][0]               
____________________________________________________________________________________________________
shareablelstm_3 (ShareableLSTM)  (None, 20)            3280        merge_2[0][0]                    
____________________________________________________________________________________________________
shareablelstm_5 (ShareableLSTM)  (None, 20)            3280        merge_3[0][0]                    
____________________________________________________________________________________________________
shareablelstm_7 (ShareableLSTM)  (None, 20)            3280        merge_4[0][0]                    
____________________________________________________________________________________________________
shareablelstm_9 (ShareableLSTM)  (None, 20)            3280        merge_5[0][0]                    
____________________________________________________________________________________________________
shareablelstm_11 (ShareableLSTM) (None, 20)            3280        merge_6[0][0]                    
____________________________________________________________________________________________________
shareablelstm_13 (ShareableLSTM) (None, 20)            3280        merge_7[0][0]                    
____________________________________________________________________________________________________
shareablelstm_15 (ShareableLSTM) (None, 20)            3280        merge_8[0][0]                    
____________________________________________________________________________________________________
shareablelstm_17 (ShareableLSTM) (None, 20)            3280        merge_9[0][0]                    
____________________________________________________________________________________________________
shareablelstm_21 (ShareableLSTM) (None, 20)            3280        merge_12[0][0]                   
____________________________________________________________________________________________________
shareablelstm_23 (ShareableLSTM) (None, 20)            3280        merge_13[0][0]                   
____________________________________________________________________________________________________
shareablelstm_25 (ShareableLSTM) (None, 20)            3280        merge_14[0][0]                   
____________________________________________________________________________________________________
shareablelstm_27 (ShareableLSTM) (None, 20)            3280        merge_15[0][0]                   
____________________________________________________________________________________________________
shareablelstm_29 (ShareableLSTM) (None, 20)            3280        merge_16[0][0]                   
____________________________________________________________________________________________________
shareablelstm_31 (ShareableLSTM) (None, 20)            3280        merge_17[0][0]                   
____________________________________________________________________________________________________
shareablelstm_33 (ShareableLSTM) (None, 20)            3280        merge_18[0][0]                   
____________________________________________________________________________________________________
shareablelstm_35 (ShareableLSTM) (None, 20)            3280        merge_19[0][0]                   
____________________________________________________________________________________________________
shareablelstm_39 (ShareableLSTM) (None, 20)            3280        merge_22[0][0]                   
____________________________________________________________________________________________________
shareablelstm_41 (ShareableLSTM) (None, 20)            3280        merge_23[0][0]                   
____________________________________________________________________________________________________
shareablelstm_43 (ShareableLSTM) (None, 20)            3280        merge_24[0][0]                   
____________________________________________________________________________________________________
shareablelstm_45 (ShareableLSTM) (None, 20)            3280        merge_25[0][0]                   
____________________________________________________________________________________________________
shareablelstm_47 (ShareableLSTM) (None, 20)            3280        merge_26[0][0]                   
____________________________________________________________________________________________________
shareablelstm_49 (ShareableLSTM) (None, 20)            3280        merge_27[0][0]                   
____________________________________________________________________________________________________
shareablelstm_51 (ShareableLSTM) (None, 20)            3280        merge_28[0][0]                   
____________________________________________________________________________________________________
shareablelstm_53 (ShareableLSTM) (None, 20)            3280        merge_29[0][0]                   
____________________________________________________________________________________________________
merge_10 (Merge)                 (None, 160)           0           shareablelstm_3[0][0]            
                                                                   shareablelstm_5[0][0]            
                                                                   shareablelstm_7[0][0]            
                                                                   shareablelstm_9[0][0]            
                                                                   shareablelstm_11[0][0]           
                                                                   shareablelstm_13[0][0]           
                                                                   shareablelstm_15[0][0]           
                                                                   shareablelstm_17[0][0]           
____________________________________________________________________________________________________
merge_20 (Merge)                 (None, 160)           0           shareablelstm_21[0][0]           
                                                                   shareablelstm_23[0][0]           
                                                                   shareablelstm_25[0][0]           
                                                                   shareablelstm_27[0][0]           
                                                                   shareablelstm_29[0][0]           
                                                                   shareablelstm_31[0][0]           
                                                                   shareablelstm_33[0][0]           
                                                                   shareablelstm_35[0][0]           
____________________________________________________________________________________________________
merge_30 (Merge)                 (None, 160)           0           shareablelstm_39[0][0]           
                                                                   shareablelstm_41[0][0]           
                                                                   shareablelstm_43[0][0]           
                                                                   shareablelstm_45[0][0]           
                                                                   shareablelstm_47[0][0]           
                                                                   shareablelstm_49[0][0]           
                                                                   shareablelstm_51[0][0]           
                                                                   shareablelstm_53[0][0]           
____________________________________________________________________________________________________
dropout_1 (Dropout)              (None, 160)           0           merge_10[0][0]                   
____________________________________________________________________________________________________
dropout_2 (Dropout)              (None, 160)           0           merge_20[0][0]                   
____________________________________________________________________________________________________
dropout_3 (Dropout)              (None, 160)           0           merge_30[0][0]                   
____________________________________________________________________________________________________
merge_31 (Merge)                 (None, 480)           0           dropout_1[0][0]                  
                                                                   dropout_2[0][0]                  
                                                                   dropout_3[0][0]                  
____________________________________________________________________________________________________
dense_1 (Dense)                  (None, 80)            38480       merge_31[0][0]                   
____________________________________________________________________________________________________
srelu_1 (SReLU)                  (None, 80)            320         dense_1[0][0]                    
____________________________________________________________________________________________________
dropout_4 (Dropout)              (None, 80)            0           srelu_1[0][0]                    
____________________________________________________________________________________________________
dense_2 (Dense)                  (None, 23)            1863        dropout_4[0][0]                  
____________________________________________________________________________________________________
target (Activation)              (None, 23)            0           dense_2[0][0]                    
====================================================================================================
Total params: 2,760,031
Trainable params: 2,760,031
Non-trainable params: 0
____________________________________________________________________________________________________
[2019-03-10 15:01] initialize weights
[2019-03-10 15:01] training preparation
…
